…
I1128 14:30:55.970518 19768 solver.cpp:190] Creating test net (#0) specified by net file: examples/mnist/lenet_train_test.prototxt
I1128 14:30:55.970553 19768 net.cpp:296] The NetState phase (1) differed from the phase (0) specified by a rule in layer mnist
I1128 14:30:55.970688 19768 net.cpp:53] Initializing net from parameters: 
name: "LeNet"
state {
  phase: TEST
}
layer {
  name: "mnist"
  type: "Data"
  top: "data"
  top: "label"
  include {
    phase: TEST
  }
  transform_param {
    scale: 0.00390625
  }
  data_param {
    source: "examples/mnist/mnist_test_lmdb"
    batch_size: 100
    backend: LMDB
  }
}
layer {
  name: "conv1"
  type: "Convolution"
  bottom: "data"
  top: "conv1"
  param {
    lr_mult: 1
  }
  param {
    lr_mult: 2
  }
  convolution_param {
    num_output: 20
    kernel_size: 5
    stride: 1
    weight_filler {
      type: "xavier"
    }
    bias_filler {
      type: "constant"
    }
  }
}
layer {
  name: "pool1"
  type: "Pooling"
  bottom: "conv1"
  top: "pool1"
  pooling_param {
    pool: MAX
    kernel_size: 2
    stride: 2
  }
}
layer {
  name: "conv2"
  type: "Convolution"
  bottom: "pool1"
  top: "conv2"
  param {
    lr_mult: 1
  }
  param {
    lr_mult: 2
  }
  convolution_param {
    num_output: 50
    kernel_size: 5
    stride: 1
    weight_filler {
      type: "xavier"
    }
    bias_filler {
      type: "constant"
    }
  }
}
layer {
  name: "pool2"
  type: "Pooling"
  bottom: "conv2"
  top: "pool2"
  pooling_param {
    pool: MAX
    kernel_size: 2
    stride: 2
  }
}
layer {
  name: "ip1"
  type: "InnerProduct"
  bottom: "pool2"
  top: "ip1"
  param {
    lr_mult: 1
  }
  param {
    lr_mult: 2
  }
  inner_product_param {
    num_output: 500
    weight_filler {
      type: "xavier"
    }
    bias_filler {
      type: "constant"
    }
  }
}
layer {
  name: "relu1"
  type: "ReLU"
  bottom: "ip1"
  top: "ip1"
}
layer {
  name: "ip2"
  type: "InnerProduct"
  bottom: "ip1"
  top: "ip2"
  param {
    lr_mult: 1
  }
  param {
    lr_mult: 2
  }
  inner_product_param {
    num_output: 10
    weight_filler {
      type: "xavier"
    }
    bias_filler {
      type: "constant"
    }
  }
}
layer {
  name: "accuracy"
  type: "Accuracy"
  bottom: "ip2"
  bottom: "label"
  top: "accuracy"
  include {
    phase: TEST
  }
}
layer {
  name: "loss"
  type: "SoftmaxWithLoss"
  bottom: "ip2"
  bottom: "label"
  top: "loss"
}
I1128 14:30:55.971511 19768 layer_factory.hpp:77] Creating layer mnist
I1128 14:30:55.971578 19768 db_lmdb.cpp:35] Opened lmdb examples/mnist/mnist_test_lmdb
I1128 14:30:55.971601 19768 net.cpp:86] Creating Layer mnist
I1128 14:30:55.971618 19768 net.cpp:382] mnist -> data
I1128 14:30:55.971637 19768 net.cpp:382] mnist -> label
I1128 14:30:55.971662 19768 data_layer.cpp:45] output data size: 100,1,28,28
I1128 14:30:55.971722 19768 net.cpp:124] Setting up mnist
I1128 14:30:55.971741 19768 net.cpp:131] Top shape: 100 1 28 28 (78400)
I1128 14:30:55.971755 19768 net.cpp:131] Top shape: 100 (100)
I1128 14:30:55.971767 19768 net.cpp:139] Memory required for data: 314000
I1128 14:30:55.971779 19768 layer_factory.hpp:77] Creating layer label_mnist_1_split
I1128 14:30:55.971794 19768 net.cpp:86] Creating Layer label_mnist_1_split
I1128 14:30:55.971807 19768 net.cpp:408] label_mnist_1_split <- label
I1128 14:30:55.971822 19768 net.cpp:382] label_mnist_1_split -> label_mnist_1_split_0
I1128 14:30:55.971840 19768 net.cpp:382] label_mnist_1_split -> label_mnist_1_split_1
I1128 14:30:55.971858 19768 net.cpp:124] Setting up label_mnist_1_split
I1128 14:30:55.971871 19768 net.cpp:131] Top shape: 100 (100)
I1128 14:30:55.971884 19768 net.cpp:131] Top shape: 100 (100)
I1128 14:30:55.971894 19768 net.cpp:139] Memory required for data: 314800
I1128 14:30:55.971906 19768 layer_factory.hpp:77] Creating layer conv1
I1128 14:30:55.971925 19768 net.cpp:86] Creating Layer conv1
I1128 14:30:55.971938 19768 net.cpp:408] conv1 <- data
I1128 14:30:55.971956 19768 net.cpp:382] conv1 -> conv1
I1128 14:30:55.971999 19768 net.cpp:124] Setting up conv1
I1128 14:30:55.972014 19768 net.cpp:131] Top shape: 100 20 24 24 (1152000)
I1128 14:30:55.972026 19768 net.cpp:139] Memory required for data: 4922800
I1128 14:30:55.972044 19768 layer_factory.hpp:77] Creating layer pool1
I1128 14:30:55.972059 19768 net.cpp:86] Creating Layer pool1
I1128 14:30:55.972084 19768 net.cpp:408] pool1 <- conv1
I1128 14:30:55.972101 19768 net.cpp:382] pool1 -> pool1
I1128 14:30:55.972120 19768 net.cpp:124] Setting up pool1
I1128 14:30:55.972133 19768 net.cpp:131] Top shape: 100 20 12 12 (288000)
I1128 14:30:55.972144 19768 net.cpp:139] Memory required for data: 6074800
I1128 14:30:55.972157 19768 layer_factory.hpp:77] Creating layer conv2
I1128 14:30:55.972173 19768 net.cpp:86] Creating Layer conv2
I1128 14:30:55.972185 19768 net.cpp:408] conv2 <- pool1
I1128 14:30:55.972203 19768 net.cpp:382] conv2 -> conv2
I1128 14:30:55.972502 19768 net.cpp:124] Setting up conv2
I1128 14:30:55.972637 19768 net.cpp:131] Top shape: 100 50 8 8 (320000)
I1128 14:30:55.972651 19768 net.cpp:139] Memory required for data: 7354800
I1128 14:30:55.972668 19768 layer_factory.hpp:77] Creating layer pool2
I1128 14:30:55.972693 19768 net.cpp:86] Creating Layer pool2
I1128 14:30:55.972730 19768 net.cpp:408] pool2 <- conv2
I1128 14:30:55.972748 19768 net.cpp:382] pool2 -> pool2
I1128 14:30:55.972776 19768 net.cpp:124] Setting up pool2
I1128 14:30:55.972792 19768 net.cpp:131] Top shape: 100 50 4 4 (80000)
I1128 14:30:55.972805 19768 net.cpp:139] Memory required for data: 7674800
I1128 14:30:55.972818 19768 layer_factory.hpp:77] Creating layer ip1
I1128 14:30:55.972836 19768 net.cpp:86] Creating Layer ip1
I1128 14:30:55.972849 19768 net.cpp:408] ip1 <- pool2
I1128 14:30:55.972868 19768 net.cpp:382] ip1 -> ip1
I1128 14:30:55.977362 19768 net.cpp:124] Setting up ip1
I1128 14:30:55.977388 19768 net.cpp:131] Top shape: 100 500 (50000)
I1128 14:30:55.977401 19768 net.cpp:139] Memory required for data: 7874800
I1128 14:30:55.977419 19768 layer_factory.hpp:77] Creating layer relu1
I1128 14:30:55.977435 19768 net.cpp:86] Creating Layer relu1
I1128 14:30:55.977448 19768 net.cpp:408] relu1 <- ip1
I1128 14:30:55.977463 19768 net.cpp:369] relu1 -> ip1 (in-place)
I1128 14:30:55.977478 19768 net.cpp:124] Setting up relu1
I1128 14:30:55.977491 19768 net.cpp:131] Top shape: 100 500 (50000)
I1128 14:30:55.977504 19768 net.cpp:139] Memory required for data: 8074800
I1128 14:30:55.977514 19768 layer_factory.hpp:77] Creating layer ip2
I1128 14:30:55.977532 19768 net.cpp:86] Creating Layer ip2
I1128 14:30:55.977545 19768 net.cpp:408] ip2 <- ip1
I1128 14:30:55.977561 19768 net.cpp:382] ip2 -> ip2
I1128 14:30:55.977638 19768 net.cpp:124] Setting up ip2
I1128 14:30:55.977651 19768 net.cpp:131] Top shape: 100 10 (1000)
I1128 14:30:55.977663 19768 net.cpp:139] Memory required for data: 8078800
I1128 14:30:55.977679 19768 layer_factory.hpp:77] Creating layer ip2_ip2_0_split
I1128 14:30:55.977692 19768 net.cpp:86] Creating Layer ip2_ip2_0_split
I1128 14:30:55.977704 19768 net.cpp:408] ip2_ip2_0_split <- ip2
I1128 14:30:55.977720 19768 net.cpp:382] ip2_ip2_0_split -> ip2_ip2_0_split_0
I1128 14:30:55.977735 19768 net.cpp:382] ip2_ip2_0_split -> ip2_ip2_0_split_1
I1128 14:30:55.977751 19768 net.cpp:124] Setting up ip2_ip2_0_split
I1128 14:30:55.977766 19768 net.cpp:131] Top shape: 100 10 (1000)
I1128 14:30:55.977777 19768 net.cpp:131] Top shape: 100 10 (1000)
I1128 14:30:55.977788 19768 net.cpp:139] Memory required for data: 8086800
I1128 14:30:55.977800 19768 layer_factory.hpp:77] Creating layer accuracy
I1128 14:30:55.977821 19768 net.cpp:86] Creating Layer accuracy
I1128 14:30:55.977833 19768 net.cpp:408] accuracy <- ip2_ip2_0_split_0
I1128 14:30:55.977845 19768 net.cpp:408] accuracy <- label_mnist_1_split_0
I1128 14:30:55.977860 19768 net.cpp:382] accuracy -> accuracy
…
ahsan@ahsan-ml:~/caffe/caffe$ pwd
/home/ahsan/caffe/caffe
./build/tools/caffe time  --model=models/bvlc_alexnet/deploy.prototxt

output:
^^^^^^^^
ahsan@ahsan-ml:~/caffe/caffe$ ./build/tools/caffe time  --model=models/bvlc_alexnet/deploy.prototxt
I1128 16:36:35.995517 22278 caffe.cpp:343] Use CPU.
I1128 16:36:35.997961 22278 net.cpp:53] Initializing net from parameters: 
name: "AlexNet"
state {
  phase: TRAIN
  level: 0
  stage: ""
}
layer {
  name: "data"
  type: "Input"
  top: "data"
  input_param {
    shape {
      dim: 1
      dim: 3
      dim: 227
      dim: 227
    }
  }
}
layer {
  name: "conv1"
  type: "Convolution"
  bottom: "data"
  top: "conv1"
  param {
    lr_mult: 1
    decay_mult: 1
  }
  param {
    lr_mult: 2
    decay_mult: 0
  }
  convolution_param {
    num_output: 96
    kernel_size: 11
    stride: 4
  }
}
layer {
  name: "relu1"
  type: "ReLU"
  bottom: "conv1"
  top: "conv1"
}
layer {
  name: "norm1"
  type: "LRN"
  bottom: "conv1"
  top: "norm1"
  lrn_param {
    local_size: 5
    alpha: 0.0001
    beta: 0.75
  }
}
layer {
  name: "pool1"
  type: "Pooling"
  bottom: "norm1"
  top: "pool1"
  pooling_param {
    pool: MAX
    kernel_size: 3
    stride: 2
  }
}
layer {
  name: "conv2"
  type: "Convolution"
  bottom: "pool1"
  top: "conv2"
  param {
    lr_mult: 1
    decay_mult: 1
  }
  param {
    lr_mult: 2
    decay_mult: 0
  }
  convolution_param {
    num_output: 256
    pad: 2
    kernel_size: 5
    group: 2
  }
}
layer {
  name: "relu2"
  type: "ReLU"
  bottom: "conv2"
  top: "conv2"
}
layer {
  name: "norm2"
  type: "LRN"
  bottom: "conv2"
  top: "norm2"
  lrn_param {
    local_size: 5
    alpha: 0.0001
    beta: 0.75
  }
}
layer {
  name: "pool2"
  type: "Pooling"
  bottom: "norm2"
  top: "pool2"
  pooling_param {
    pool: MAX
    kernel_size: 3
    stride: 2
  }
}
layer {
  name: "conv3"
  type: "Convolution"
  bottom: "pool2"
  top: "conv3"
  param {
    lr_mult: 1
    decay_mult: 1
  }
  param {
    lr_mult: 2
    decay_mult: 0
  }
  convolution_param {
    num_output: 384
    pad: 1
    kernel_size: 3
  }
}
layer {
  name: "relu3"
  type: "ReLU"
  bottom: "conv3"
  top: "conv3"
}
layer {
  name: "conv4"
  type: "Convolution"
  bottom: "conv3"
  top: "conv4"
  param {
    lr_mult: 1
    decay_mult: 1
  }
  param {
    lr_mult: 2
    decay_mult: 0
  }
  convolution_param {
    num_output: 384
    pad: 1
    kernel_size: 3
    group: 2
  }
}
layer {
  name: "relu4"
  type: "ReLU"
  bottom: "conv4"
  top: "conv4"
}
layer {
  name: "conv5"
  type: "Convolution"
  bottom: "conv4"
  top: "conv5"
  param {
    lr_mult: 1
    decay_mult: 1
  }
  param {
    lr_mult: 2
    decay_mult: 0
  }
  convolution_param {
    num_output: 256
    pad: 1
    kernel_size: 3
    group: 2
  }
}
layer {
  name: "relu5"
  type: "ReLU"
  bottom: "conv5"
  top: "conv5"
}
layer {
  name: "pool5"
  type: "Pooling"
  bottom: "conv5"
  top: "pool5"
  pooling_param {
    pool: MAX
    kernel_size: 3
    stride: 2
  }
}
layer {
  name: "fc6"
  type: "InnerProduct"
  bottom: "pool5"
  top: "fc6"
  param {
    lr_mult: 1
    decay_mult: 1
  }
  param {
    lr_mult: 2
    decay_mult: 0
  }
  inner_product_param {
    num_output: 4096
  }
}
layer {
  name: "relu6"
  type: "ReLU"
  bottom: "fc6"
  top: "fc6"
}
layer {
  name: "drop6"
  type: "Dropout"
  bottom: "fc6"
  top: "fc6"
  dropout_param {
    dropout_ratio: 0.5
  }
}
layer {
  name: "fc7"
  type: "InnerProduct"
  bottom: "fc6"
  top: "fc7"
  param {
    lr_mult: 1
    decay_mult: 1
  }
  param {
    lr_mult: 2
    decay_mult: 0
  }
  inner_product_param {
    num_output: 4096
  }
}
layer {
  name: "relu7"
  type: "ReLU"
  bottom: "fc7"
  top: "fc7"
}
layer {
  name: "drop7"
  type: "Dropout"
  bottom: "fc7"
  top: "fc7"
  dropout_param {
    dropout_ratio: 0.5
  }
}
layer {
  name: "fc8"
  type: "InnerProduct"
  bottom: "fc7"
  top: "fc8"
  param {
    lr_mult: 1
    decay_mult: 1
  }
  param {
    lr_mult: 2
    decay_mult: 0
  }
  inner_product_param {
    num_output: 1000
  }
}
layer {
  name: "prob"
  type: "Softmax"
  bottom: "fc8"
  top: "prob"
}
I1128 16:36:35.999553 22278 layer_factory.hpp:77] Creating layer data
I1128 16:36:35.999585 22278 net.cpp:86] Creating Layer data
I1128 16:36:35.999606 22278 net.cpp:382] data -> data
I1128 16:36:35.999641 22278 net.cpp:124] Setting up data
I1128 16:36:35.999666 22278 net.cpp:131] Top shape: 1 3 227 227 (154587)
I1128 16:36:35.999701 22278 net.cpp:139] Memory required for data: 618348
I1128 16:36:35.999716 22278 layer_factory.hpp:77] Creating layer conv1
I1128 16:36:35.999735 22278 net.cpp:86] Creating Layer conv1
I1128 16:36:35.999750 22278 net.cpp:408] conv1 <- data
I1128 16:36:35.999768 22278 net.cpp:382] conv1 -> conv1
I1128 16:36:35.999899 22278 net.cpp:124] Setting up conv1
I1128 16:36:35.999917 22278 net.cpp:131] Top shape: 1 96 55 55 (290400)
I1128 16:36:35.999929 22278 net.cpp:139] Memory required for data: 1779948
I1128 16:36:35.999956 22278 layer_factory.hpp:77] Creating layer relu1
I1128 16:36:35.999972 22278 net.cpp:86] Creating Layer relu1
I1128 16:36:35.999984 22278 net.cpp:408] relu1 <- conv1
I1128 16:36:35.999999 22278 net.cpp:369] relu1 -> conv1 (in-place)
I1128 16:36:36.000013 22278 net.cpp:124] Setting up relu1
I1128 16:36:36.000030 22278 net.cpp:131] Top shape: 1 96 55 55 (290400)
I1128 16:36:36.000041 22278 net.cpp:139] Memory required for data: 2941548
I1128 16:36:36.000052 22278 layer_factory.hpp:77] Creating layer norm1
I1128 16:36:36.000066 22278 net.cpp:86] Creating Layer norm1
I1128 16:36:36.000078 22278 net.cpp:408] norm1 <- conv1
I1128 16:36:36.000092 22278 net.cpp:382] norm1 -> norm1
I1128 16:36:36.000113 22278 net.cpp:124] Setting up norm1
I1128 16:36:36.000126 22278 net.cpp:131] Top shape: 1 96 55 55 (290400)
I1128 16:36:36.000138 22278 net.cpp:139] Memory required for data: 4103148
I1128 16:36:36.000149 22278 layer_factory.hpp:77] Creating layer pool1
I1128 16:36:36.000164 22278 net.cpp:86] Creating Layer pool1
I1128 16:36:36.000175 22278 net.cpp:408] pool1 <- norm1
I1128 16:36:36.000190 22278 net.cpp:382] pool1 -> pool1
I1128 16:36:36.000216 22278 net.cpp:124] Setting up pool1
I1128 16:36:36.000229 22278 net.cpp:131] Top shape: 1 96 27 27 (69984)
I1128 16:36:36.000241 22278 net.cpp:139] Memory required for data: 4383084
I1128 16:36:36.000252 22278 layer_factory.hpp:77] Creating layer conv2
I1128 16:36:36.000267 22278 net.cpp:86] Creating Layer conv2
I1128 16:36:36.000279 22278 net.cpp:408] conv2 <- pool1
I1128 16:36:36.000293 22278 net.cpp:382] conv2 -> conv2
I1128 16:36:36.000928 22278 net.cpp:124] Setting up conv2
I1128 16:36:36.000949 22278 net.cpp:131] Top shape: 1 256 27 27 (186624)
I1128 16:36:36.000962 22278 net.cpp:139] Memory required for data: 5129580
I1128 16:36:36.000978 22278 layer_factory.hpp:77] Creating layer relu2
I1128 16:36:36.000993 22278 net.cpp:86] Creating Layer relu2
I1128 16:36:36.001004 22278 net.cpp:408] relu2 <- conv2
I1128 16:36:36.001018 22278 net.cpp:369] relu2 -> conv2 (in-place)
I1128 16:36:36.001032 22278 net.cpp:124] Setting up relu2
I1128 16:36:36.001045 22278 net.cpp:131] Top shape: 1 256 27 27 (186624)
I1128 16:36:36.001056 22278 net.cpp:139] Memory required for data: 5876076
I1128 16:36:36.001067 22278 layer_factory.hpp:77] Creating layer norm2
I1128 16:36:36.001080 22278 net.cpp:86] Creating Layer norm2
I1128 16:36:36.001092 22278 net.cpp:408] norm2 <- conv2
I1128 16:36:36.001106 22278 net.cpp:382] norm2 -> norm2
I1128 16:36:36.001122 22278 net.cpp:124] Setting up norm2
I1128 16:36:36.001135 22278 net.cpp:131] Top shape: 1 256 27 27 (186624)
I1128 16:36:36.001147 22278 net.cpp:139] Memory required for data: 6622572
I1128 16:36:36.001157 22278 layer_factory.hpp:77] Creating layer pool2
I1128 16:36:36.001171 22278 net.cpp:86] Creating Layer pool2
I1128 16:36:36.001183 22278 net.cpp:408] pool2 <- norm2
I1128 16:36:36.001197 22278 net.cpp:382] pool2 -> pool2
I1128 16:36:36.001214 22278 net.cpp:124] Setting up pool2
I1128 16:36:36.001226 22278 net.cpp:131] Top shape: 1 256 13 13 (43264)
I1128 16:36:36.001238 22278 net.cpp:139] Memory required for data: 6795628
I1128 16:36:36.001248 22278 layer_factory.hpp:77] Creating layer conv3
I1128 16:36:36.001263 22278 net.cpp:86] Creating Layer conv3
I1128 16:36:36.001276 22278 net.cpp:408] conv3 <- pool2
I1128 16:36:36.001289 22278 net.cpp:382] conv3 -> conv3
I1128 16:36:36.002962 22278 net.cpp:124] Setting up conv3
I1128 16:36:36.002987 22278 net.cpp:131] Top shape: 1 384 13 13 (64896)
I1128 16:36:36.003000 22278 net.cpp:139] Memory required for data: 7055212
I1128 16:36:36.003043 22278 layer_factory.hpp:77] Creating layer relu3
I1128 16:36:36.003059 22278 net.cpp:86] Creating Layer relu3
I1128 16:36:36.003072 22278 net.cpp:408] relu3 <- conv3
I1128 16:36:36.003085 22278 net.cpp:369] relu3 -> conv3 (in-place)
I1128 16:36:36.003100 22278 net.cpp:124] Setting up relu3
I1128 16:36:36.003114 22278 net.cpp:131] Top shape: 1 384 13 13 (64896)
I1128 16:36:36.003125 22278 net.cpp:139] Memory required for data: 7314796
I1128 16:36:36.003136 22278 layer_factory.hpp:77] Creating layer conv4
I1128 16:36:36.003152 22278 net.cpp:86] Creating Layer conv4
I1128 16:36:36.003165 22278 net.cpp:408] conv4 <- conv3
I1128 16:36:36.003178 22278 net.cpp:382] conv4 -> conv4
I1128 16:36:36.004447 22278 net.cpp:124] Setting up conv4
I1128 16:36:36.004472 22278 net.cpp:131] Top shape: 1 384 13 13 (64896)
I1128 16:36:36.004483 22278 net.cpp:139] Memory required for data: 7574380
I1128 16:36:36.004498 22278 layer_factory.hpp:77] Creating layer relu4
I1128 16:36:36.004514 22278 net.cpp:86] Creating Layer relu4
I1128 16:36:36.004528 22278 net.cpp:408] relu4 <- conv4
I1128 16:36:36.004541 22278 net.cpp:369] relu4 -> conv4 (in-place)
I1128 16:36:36.004556 22278 net.cpp:124] Setting up relu4
I1128 16:36:36.004570 22278 net.cpp:131] Top shape: 1 384 13 13 (64896)
I1128 16:36:36.004580 22278 net.cpp:139] Memory required for data: 7833964
I1128 16:36:36.004591 22278 layer_factory.hpp:77] Creating layer conv5
I1128 16:36:36.004608 22278 net.cpp:86] Creating Layer conv5
I1128 16:36:36.004621 22278 net.cpp:408] conv5 <- conv4
I1128 16:36:36.004634 22278 net.cpp:382] conv5 -> conv5
I1128 16:36:36.005496 22278 net.cpp:124] Setting up conv5
I1128 16:36:36.005514 22278 net.cpp:131] Top shape: 1 256 13 13 (43264)
I1128 16:36:36.005525 22278 net.cpp:139] Memory required for data: 8007020
I1128 16:36:36.005544 22278 layer_factory.hpp:77] Creating layer relu5
I1128 16:36:36.005558 22278 net.cpp:86] Creating Layer relu5
I1128 16:36:36.005570 22278 net.cpp:408] relu5 <- conv5
I1128 16:36:36.005585 22278 net.cpp:369] relu5 -> conv5 (in-place)
I1128 16:36:36.005599 22278 net.cpp:124] Setting up relu5
I1128 16:36:36.005614 22278 net.cpp:131] Top shape: 1 256 13 13 (43264)
I1128 16:36:36.005625 22278 net.cpp:139] Memory required for data: 8180076
I1128 16:36:36.005635 22278 layer_factory.hpp:77] Creating layer pool5
I1128 16:36:36.005650 22278 net.cpp:86] Creating Layer pool5
I1128 16:36:36.005661 22278 net.cpp:408] pool5 <- conv5
I1128 16:36:36.005677 22278 net.cpp:382] pool5 -> pool5
I1128 16:36:36.005697 22278 net.cpp:124] Setting up pool5
I1128 16:36:36.005710 22278 net.cpp:131] Top shape: 1 256 6 6 (9216)
I1128 16:36:36.005722 22278 net.cpp:139] Memory required for data: 8216940
I1128 16:36:36.005733 22278 layer_factory.hpp:77] Creating layer fc6
I1128 16:36:36.005750 22278 net.cpp:86] Creating Layer fc6
I1128 16:36:36.005762 22278 net.cpp:408] fc6 <- pool5
I1128 16:36:36.005776 22278 net.cpp:382] fc6 -> fc6
I1128 16:36:36.072793 22278 net.cpp:124] Setting up fc6
I1128 16:36:36.072834 22278 net.cpp:131] Top shape: 1 4096 (4096)
I1128 16:36:36.072837 22278 net.cpp:139] Memory required for data: 8233324
I1128 16:36:36.072849 22278 layer_factory.hpp:77] Creating layer relu6
I1128 16:36:36.072868 22278 net.cpp:86] Creating Layer relu6
I1128 16:36:36.072882 22278 net.cpp:408] relu6 <- fc6
I1128 16:36:36.072899 22278 net.cpp:369] relu6 -> fc6 (in-place)
I1128 16:36:36.072908 22278 net.cpp:124] Setting up relu6
I1128 16:36:36.072914 22278 net.cpp:131] Top shape: 1 4096 (4096)
I1128 16:36:36.072918 22278 net.cpp:139] Memory required for data: 8249708
I1128 16:36:36.072922 22278 layer_factory.hpp:77] Creating layer drop6
I1128 16:36:36.072933 22278 net.cpp:86] Creating Layer drop6
I1128 16:36:36.072937 22278 net.cpp:408] drop6 <- fc6
I1128 16:36:36.072943 22278 net.cpp:369] drop6 -> fc6 (in-place)
I1128 16:36:36.072957 22278 net.cpp:124] Setting up drop6
I1128 16:36:36.072962 22278 net.cpp:131] Top shape: 1 4096 (4096)
I1128 16:36:36.072965 22278 net.cpp:139] Memory required for data: 8266092
I1128 16:36:36.073009 22278 layer_factory.hpp:77] Creating layer fc7
I1128 16:36:36.073019 22278 net.cpp:86] Creating Layer fc7
I1128 16:36:36.073024 22278 net.cpp:408] fc7 <- fc6
I1128 16:36:36.073030 22278 net.cpp:382] fc7 -> fc7
I1128 16:36:36.094949 22278 net.cpp:124] Setting up fc7
I1128 16:36:36.094998 22278 net.cpp:131] Top shape: 1 4096 (4096)
I1128 16:36:36.095002 22278 net.cpp:139] Memory required for data: 8282476
I1128 16:36:36.095017 22278 layer_factory.hpp:77] Creating layer relu7
I1128 16:36:36.095028 22278 net.cpp:86] Creating Layer relu7
I1128 16:36:36.095034 22278 net.cpp:408] relu7 <- fc7
I1128 16:36:36.095044 22278 net.cpp:369] relu7 -> fc7 (in-place)
I1128 16:36:36.095055 22278 net.cpp:124] Setting up relu7
I1128 16:36:36.095062 22278 net.cpp:131] Top shape: 1 4096 (4096)
I1128 16:36:36.095065 22278 net.cpp:139] Memory required for data: 8298860
I1128 16:36:36.095069 22278 layer_factory.hpp:77] Creating layer drop7
I1128 16:36:36.095077 22278 net.cpp:86] Creating Layer drop7
I1128 16:36:36.095082 22278 net.cpp:408] drop7 <- fc7
I1128 16:36:36.095088 22278 net.cpp:369] drop7 -> fc7 (in-place)
I1128 16:36:36.095095 22278 net.cpp:124] Setting up drop7
I1128 16:36:36.095108 22278 net.cpp:131] Top shape: 1 4096 (4096)
I1128 16:36:36.095113 22278 net.cpp:139] Memory required for data: 8315244
I1128 16:36:36.095118 22278 layer_factory.hpp:77] Creating layer fc8
I1128 16:36:36.095126 22278 net.cpp:86] Creating Layer fc8
I1128 16:36:36.095131 22278 net.cpp:408] fc8 <- fc7
I1128 16:36:36.095139 22278 net.cpp:382] fc8 -> fc8
I1128 16:36:36.100841 22278 net.cpp:124] Setting up fc8
I1128 16:36:36.100879 22278 net.cpp:131] Top shape: 1 1000 (1000)
I1128 16:36:36.100883 22278 net.cpp:139] Memory required for data: 8319244
I1128 16:36:36.100894 22278 layer_factory.hpp:77] Creating layer prob
I1128 16:36:36.100905 22278 net.cpp:86] Creating Layer prob
I1128 16:36:36.100911 22278 net.cpp:408] prob <- fc8
I1128 16:36:36.100921 22278 net.cpp:382] prob -> prob
I1128 16:36:36.100937 22278 net.cpp:124] Setting up prob
I1128 16:36:36.100944 22278 net.cpp:131] Top shape: 1 1000 (1000)
I1128 16:36:36.100947 22278 net.cpp:139] Memory required for data: 8323244
I1128 16:36:36.100952 22278 net.cpp:202] prob does not need backward computation.
I1128 16:36:36.100965 22278 net.cpp:202] fc8 does not need backward computation.
I1128 16:36:36.100968 22278 net.cpp:202] drop7 does not need backward computation.
I1128 16:36:36.100973 22278 net.cpp:202] relu7 does not need backward computation.
…
